…
     "shell.execute_reply": "2022-08-29T10:12:55.051452Z",
     "shell.execute_reply.started": "2022-08-29T10:11:47.689354Z"
    },
    "jupyter": {
     "outputs_hidden": false
    },
    "pycharm": {
     "name": "#%%\n"
    }
   },
   "outputs": [
    {
     "name": "stdout",
     "output_type": "stream",
     "text": [
      "Model: \"sequential\"\n",
      "_________________________________________________________________\n",
      "Layer (type)                 Output Shape              Param #   \n",
      "=================================================================\n",
      "conv1d (Conv1D)              (None, 4, 128)            1664      \n",
      "_________________________________________________________________\n",
      "max_pooling1d (MaxPooling1D) (None, 2, 128)            0         \n",
      "_________________________________________________________________\n",
      "conv1d_1 (Conv1D)            (None, 1, 64)             16448     \n",
      "_________________________________________________________________\n",
      "max_pooling1d_1 (MaxPooling1 (None, 1, 64)             0         \n",
      "_________________________________________________________________\n",
      "bidirectional (Bidirectional (None, 1, 512)            657408    \n",
      "_________________________________________________________________\n",
      "dropout (Dropout)            (None, 1, 512)            0         \n",
      "_________________________________________________________________\n",
      "bidirectional_1 (Bidirection (None, 1, 512)            1574912   \n",
      "_________________________________________________________________\n",
      "dropout_1 (Dropout)          (None, 1, 512)            0         \n",
      "_________________________________________________________________\n",
      "dense (Dense)                (None, 1, 32)             16416     \n",
      "_________________________________________________________________\n",
      "dense_1 (Dense)              (None, 1, 2)              66        \n",
      "=================================================================\n",
      "Total params: 2,266,914\n",
      "Trainable params: 2,266,914\n",
      "Non-trainable params: 0\n",
      "_________________________________________________________________\n",
      "Model: \"sequential_1\"\n",
      "_________________________________________________________________\n",
      "Layer (type)                 Output Shape              Param #   \n",
      "=================================================================\n",
      "conv1d_2 (Conv1D)            (None, 4, 128)            1920      \n",
      "_________________________________________________________________\n",
      "max_pooling1d_2 (MaxPooling1 (None, 2, 128)            0         \n",
      "_________________________________________________________________\n",
      "conv1d_3 (Conv1D)            (None, 1, 64)             16448     \n",
      "_________________________________________________________________\n",
      "max_pooling1d_3 (MaxPooling1 (None, 1, 64)             0         \n",
      "_________________________________________________________________\n",
      "bidirectional_2 (Bidirection (None, 1, 512)            657408    \n",
      "_________________________________________________________________\n",
      "dropout_2 (Dropout)          (None, 1, 512)            0         \n",
      "_________________________________________________________________\n",
      "bidirectional_3 (Bidirection (None, 1, 512)            1574912   \n",
      "_________________________________________________________________\n",
      "dropout_3 (Dropout)          (None, 1, 512)            0         \n",
      "_________________________________________________________________\n",
      "dense_2 (Dense)              (None, 1, 32)             16416     \n",
      "_________________________________________________________________\n",
      "dense_3 (Dense)              (None, 1, 2)              66        \n",
      "=================================================================\n",
      "Total params: 2,267,170\n",
      "Trainable params: 2,267,170\n",
      "Non-trainable params: 0\n",
      "_________________________________________________________________\n",
      "Epoch 1/50\n",
      "13/13 [==============================] - 8s 137ms/step - loss: 0.0709 - val_loss: 0.0491\n",
      "Epoch 2/50\n",
…
